…
.1...🎯 知识点总结 词向量：词语被表示成坐标（如“国王”→[1,0]），类似游戏地图里的位置。 语义相似：坐标靠近的词语意义相关（如水果类聚在一起）。 计算机如何理解：通过计算坐标距离判断词语关系（距离越小越相似）。🌟 一些小问题？（五一期间 · 作业） 词语之间的距离：请你调研还有哪些计算词语之间距离的公式或方式？ 他们各自有什么优缺点？ 延伸思考：如果加入第三个维度“动物”，你觉得“猫”和“狗”的坐标会是什么样？ 😸→[?, ?, ?]" }, { "title": "多模态实验", "url": "/posts/%E5%A4%9A%E6%A8%A1%E6%80%81%E5%AE%9E%E9%AA%8C/", "categories": "", "tags": "", "date": "2025-02-11 00:00:00 +0800", "snippet": "多模态实验过程记录实验1：colpaligemma-3b-pt-448-base测试PaliGemmaForConditionalGeneration( (vision_tower): SiglipVisionModel( (vision_model): SiglipVisionTransformer( (embeddings): SiglipVisionEmbeddings( (patch_embedding): Conv2d(3, 1152, kernel_size=(14, 14), stride=(14, 14), padding=valid) (position_embedding): Embedding(1024, 1152) ) (encoder): SiglipEncoder( (layers): ModuleList( (0-26): 27 x SiglipEncoderLayer( (self_attn): SiglipSdpaAttention( (k_proj): Linear(in_features=1152, out_features=1152, bias=True) (v_proj): Linear(in_features=1152, out_features=1152, bias=True) (q_proj): Linear(in_features=1152, out_features=1152, bias=True) (out_proj): Linear(in_features=1152, out_features=1152, bias=True) ) (layer_norm1): LayerNorm((1152,), eps=1e-06, elementwise_affine=True) (mlp): SiglipMLP( (activation_fn): PytorchGELUTanh() (fc1): Linear(in_features=1152, out_features=4304, bias=True) (fc2): Linear(in_features=4304, out_features=1152, bias=True) ) (layer_norm2): LayerNorm((1152,), eps=1e-06, elementwise_affine=True) ) ) ) (post_layernorm): LayerNorm((1152,), eps=1e-06, elementwise_affine=True) ) ) (multi_modal_projector): PaliGemmaMultiModalProjector( (linear): Linear(in_features=1152, out_features=2048, bias=True) ) (language_model): GemmaForCausalLM( (model): GemmaModel( (embed_tokens): Embedding(257216, 2048, padding_idx=0) (layers): ModuleList( (0-17): 18 x GemmaDecoderLayer( (self_attn): GemmaAttention( (q_proj): Linear(in_features=2048, out_features=2048, bias=False) (k_proj): Linear(in_features=2048, out_features=256, bias=False) (v_proj): Linear(in_features=2048, out_features=256, bias=False) (o_proj): Linear(in_features=2048, out_features=2048, bias=False) ) (mlp): GemmaMLP( (gate_proj): Linear(in_features=2048, out_features=16384, bias=False) (up_proj): Linear(in_features=2048, out_features=16384, bias=False) (down_proj): Linear(in_features=16384, out_features=2048, bias=False) (act_fn): PytorchGELUTanh() ) (input_layernorm): GemmaRMSNorm((2048,), eps=1e-06) (post_attention_layernorm): GemmaRMSNorm((2048,), eps=1e-06) ) ) (norm): GemmaRMSNorm((2048,), eps=1e-06) (rotary_emb): GemmaRotaryEmbedding() ) (lm_head): Linear(in_features=2048, out_features=257216, bias=False) ))图中左侧的Vision LLM：PaliGemma-3B 是一种视觉-语言模型（VLM），该模型使用的ViTs模型是SigLIP-So400m/14，它可以生成高质量的图像嵌入。1》processor = AutoProcessor.from_pretrained(model_name)inputs = processor(images=image, text=prompt, return_tensors=”pt”) inputs[‘input_ids’].shape = torch.Size([1, 1034]) inputs[‘attention_mask’].shape = torch.Size([1, 1034]) inputs[‘pixel_values’].shape = 
…
